data.pth (torch, 11690 bytes, 6 tensors)

l1.weight f4 [8, 177]
0	0x3fbd7f42	1.4804461
1	0x3f5f9966	0.8734344
2	0x3f03c1f0	0.514678
3	0x3f66490e	0.8995522
4	0x3f694983	0.91127795
5	0xbda91b18	-0.08257121
6	0xbc26dad8	-0.010184012
7	0x3f6c0610	0.9219675
8	0x3f142b35	0.5787843
9	0x3fba1b8b	1.4539655
10	0x40402503	3.002259
11	0x3fa11ac4	1.2586293
12	0x3f814f76	1.0102375
13	0x3e9342b4	0.28761828
14	0x3d72d89c	0.059288606
15	0x3f646d71	0.89229494
16	0x3eff09e7	0.49812242
17	0xbe1a439e	-0.15064856
18	0x3f22a91a	0.6353928
19	0x3e9fc475	0.31204572
20	0x3f2d5535	0.6770814
21	0x3efb0b11	0.4903188
22	0x3e91d916	0.28485936
23	0xbe4c03a3	-0.19923262
24	0xbeef3279	-0.46718195
25	0x3efb5fb9	0.49096468
26	0x3f34b09e	0.70581996
27	0x3f5693f6	0.8381952
28	0x3f971922	1.1804545
29	0xbd334e7d	-0.043776024
30	0x3f60dbb6	0.8783525
31	0x3d292c72	0.041302152
32	0x3f2b3d9c	0.66890883
33	0x3ee41b48	0.44552064
34	0x3f406e1f	0.7516803
35	0xbe4979a6	-0.19675311
36	0x3f83be7a	1.0292504
37	0x3fa6cece	1.3031862
38	0xbe858315	-0.2607657
39	0xbed077ac	-0.40716302
40	0x3e0af5c7	0.13570319
41	0x3ede901a	0.43469316
42	0x3c7bc2cc	0.015366267
43	0x3f44becf	0.7685365
44	0x3f1850f9	0.59498554
45	0x3f2e46fe	0.68077075
46	0x3f151b4a	0.58244765
47	0xbee083ac	-0.43850458
48	0xbeba1092	-0.36340767
49	0xbe6d9c1f	-0.23204087
50	0x3f9bea08	1.2180796
51	0x3eedf3b2	0.46474987
52	0xbf2bdce9	-0.6713396
53	0x3f34e733	0.7066528
54	0x3e757db0	0.23973727
55	0x3eedf35a	0.46474725
56	0x3dfbdf8d	0.12298498
57	0xbf8cef3a	-1.1010506
58	0xbfd1ce16	-1.6391017
59	0x3da110a4	0.07864502
60	0x3fbd4c1e	1.4788854
61	0x3f070133	0.52736205
62	0xbd1f881f	-0.038948175
63	0x3f518f4b	0.8185927
64	0x3faff83c	1.374763
65	0x3faa0704	1.3283391
66	0x3ea1b38b	0.31582293
67	0x3fadd70f	1.3581256
68	0x3f625af7	0.8842005
69	0x3f61e801	0.88244635
70	0x3e66fe05	0.22557838
71	0x3eaf627d	0.34254828
72	0xbf35e969	-0.7105928
73	0x3ecbf350	0.3983407
74	0x3f988665	1.1916014
75	0x3edd5723	0.43230543
76	0x3eaca086	0.3371622
77	0x3f07a7ef	0.5299062
78	0x3ef50f74	0.47863352
79	0x3eb324bd	0.34988967
80	0x3e4cd99d	0.20004888
81	0x3ec96a68	0.39338994
82	0xbedcab4c	-0.4309944
83	0x3f9e1205	1.2349249
84	0x3f306443	0.6890299
85	0x3f67f9e3	0.9061567
86	0x3f22c7cc	0.63586116
87	0x3f4a9c20	0.7914448
88	0x3f051165	0.51979667
89	0x3ee55ffd	0.44799796
90	0x3e41bf47	0.18920623
91	0xbee9d46b	-0.45669875
92	0xbe9b0fed	-0.30285588
93	0xbe926e57	-0.28599808
94	0x3f1bf024	0.609133
95	0xbea7ae95	-0.32750383
96	0xbe82a66d	-0.25517598
97	0x3ee19475	0.44058576
98	0xbe92e3fe	-0.2868957
99	0x3f98586e	1.1901987
100	0x3ff65fdc	1.9248004
101	0x3d2d88a0	0.042366624
102	0x3f451d6f	0.7699804
103	0x3eda57e2	0.42645174
104	0x3f80a52f	1.005041
105	0x3f195808	0.5989995
106	0x3f2bb25b	0.67069024
107	0x3f366ca0	0.712595
108	0x3f1d69bc	0.6148946
109	0x3f46776a	0.7752596
110	0x3f3d591a	0.73964083
111	0x3e5dafd5	0.21649106
112	0x3bd986f6	0.006638403
113	0x3e68267d	0.22670932
114	0x3c4c88b5	0.012483765
115	0x3ee6eb33	0.45101318
116	0x3e207904	0.15671164
117	0x3f0b3d5c	0.543905
118	0x3edf9d0c	0.43674505
119	0xbe90e0f2	-0.2829662
120	0xbf503186	-0.81325567
121	0x3f8212d8	1.0162001
122	0x3f065569	0.52474076
123	0x3f19527a	0.59891474
124	0x3f866413	1.049929
125	0x3ee3428c	0.4438671
126	0x3d39d35e	0.04536759
127	0xbf222d42	-0.6335031
128	0xbf8a4949	-1.0803615
129	0x3f09e9a8	0.53872156
130	0x3f877a15	1.0584131
131	0x3d903a28	0.070423424
132	0x3fecdba8	1.8504534
133	0x3fb88b1c	1.4417453
134	0xbf18b06b	-0.5964419
135	0xbf8e9a86	-1.1140907
136	0x3f1b7831	0.6073027
137	0x3f47656f	0.7788915
138	0x4001ec4e	2.030048
139	0x3f73e989	0.9527822
140	0xbed0120a	-0.40638763
141	0x3de1292b	0.1099418
142	0x3f2c8774	0.67394185
143	0x3f0f0629	0.55868775
144	0x3fad4f03	1.3539737
145	0x3ead326b	0.33827528
146	0x3fbe64bd	1.4874493
147	0x3ed3e203	0.4138337
148	0x3f179200	0.59207153
149	0x3f070610	0.52743626
150	0x3f74a674	0.9556649
151	0x3f297d96	0.66207254
152	0x3f1dda79	0.6166149
153	0x3f1b736a	0.6072298
154	0xbec1d938	-0.37861037
155	0x3f4c67ba	0.79845774
156	0x3f6bc09c	0.92090774
157	0x3f298373	0.662162
158	0x3f6a3610	0.9148874
159	0xbea80c9d	-0.32822123
160	0x3dc4fcd4	0.09618536
161	0x3e7c055b	0.24611418
162	0x3e9fab58	0.31185412
163	0xbe6fe46b	-0.23426978
164	0x3fbe5fd2	1.4872992
165	0x3f0d219f	0.55129427
166	0xbe196bc4	-0.14982516
167	0xbc8c07cc	-0.017093562
168	0x3f74da41	0.9564553
169	0x3f0f9d55	0.56099445
170	0x3f91a86d	1.1379524
171	0xbe03c9c9	-0.12869944
172	0x3e6219d4	0.22080165
173	0x3edeec76	0.4353978
174	0x3f6661fa	0.8999325
175	0xbe43ab2e	-0.19108269
176	0x3f6d3bdf	0.9266948
177	0x3e65e810	0.22451806
178	0x3f05ab3c	0.5221441
179	0xbef9e466	-0.48807067
180	0x3eb451f8	0.35218787
181	0x3fb27eef	1.3944987
182	0x3f51064d	0.8165024
183	0xbd57b37d	-0.052661408
184	0x3f69ba03	0.91299456
185	0x3e9ef63c	0.31047237
186	0x3e61c8e7	0.22049294
187	0x3eecce02	0.4625092
188	0x3ec9a4b8	0.39383483
189	0x3ea23998	0.31684566
190	0xbf25494e	-0.6456498
191	0xbe5cc096	-0.2155784
192	0x3f2ba066	0.67041624
193	0x3f08f889	0.53504235
194	0xbdc4f7c0	-0.09617567
195	0x3fa8a4b6	1.3175266
196	0xbe59478d	-0.212187
197	0x3eedec77	0.4646947
198	0x3e3d3926	0.18478832
199	0x3daf255f	0.0855205
200	0x3f0f10c7	0.55884975
201	0xbe5ed323	-0.2176023
202	0xbc4b3426	-0.01240257
203	0xbf1a85bf	-0.6036033
204	0xbf175a22	-0.59121907
205	0xbf04b6aa	-0.51841223
206	0x3e621d10	0.22081399
207	0x3f9ece5e	1.2406728
208	0x3eb243c7	0.34817335
209	0x3f3e3fb5	0.7431596
210	0x3e2f1c16	0.17100558
211	0xbf531e25	-0.8246787
212	0x3cef1fd6	0.029189985
213	0x3f20a1b9	0.6274677
214	0xbf46f997	-0.77724594
215	0xbeef9a34	-0.46797335
216	0x3e166b37	0.14689337
217	0x3efdf336	0.49599618
218	0xbf5c10f0	-0.85963345
219	0xbe3c7098	-0.18402326
220	0xbf1237f2	-0.57116616
221	0x3f4fdb02	0.81193554
222	0xbe3b328c	-0.18281001
223	0xbf240953	-0.6407673
224	0x3e5bd7cb	0.21469037
225	0xbfcb2475	-1.5870501
226	0x3f0c779f	0.5487003
227	0xbf5937a0	-0.848505
228	0x3ebc0b2f	0.36727282
229	0xbff23559	-1.892253
230	0x3f05aff5	0.52221614
231	0xbe6aada1	-0.22917797
232	0xbf2b9656	-0.6702627
233	0x3f026d7c	0.5094831
234	0x3eb6c52d	0.35697308
235	0x3fa20f59	1.2660934
236	0x3eb513f2	0.3536678
237	0x3e1a4cd7	0.15068375
238	0x3e4d299c	0.20035404
239	0x3eb35c0c	0.35031164
240	0xbf15fe8a	-0.5859152
241	0x3f819aec	1.0125403
242	0x3e9aa09e	0.30200666
243	0x3de0713e	0.10959099
244	0x3f64058a	0.8907095
245	0x40054c2b	2.082774
246	0xbf281998	-0.6566405
247	0x3f1348e7	0.57533115
248	0x3eef23bc	0.4670695
249	0x3fe1a735	1.7629153
250	0x3eaa16c8	0.33220506
251	0x3f58b5f3	0.8465263
252	0x3ea2c96c	0.31794298
253	0x3f09dbab	0.5385081
254	0x3e595cd3	0.21226816
255	0x3e4d22af	0.20032762

l1.bias f4 [8]
0	0x4042b2ae	3.0421557
1	0x3fd23e3b	1.6425241
2	0x4027b4d6	2.6204123
3	0x3fe8006f	1.8125132
4	0x4018f548	2.3899708
5	0x3fe592ae	1.7935388
6	0x3fb65860	1.424572
7	0x40184bda	2.3796296

l2.weight f4 [8, 8]
0	0x400779b3	2.116803
1	0xbf28322d	-0.6570156
2	0x4015b42c	2.3391218
3	0x40a82e0b	5.2556205
4	0xbf8d2c2c	-1.1029105
5	0x3fb95c8f	1.4481372
6	0x403f50ea	2.9893136
7	0x4030cc08	2.762453
8	0xbe70b12f	-0.2350509
9	0x3fc46a83	1.5345005
10	0xbfa34105	-1.2754217
11	0x3f812972	1.0090773
12	0x407987e3	3.8989189
13	0x3e7d6407	0.24745189
14	0x408caaf4	4.3958683
15	0x4041f137	3.0303476
16	0x3f7e473b	0.9932744
17	0x3f5036a3	0.8133337
18	0xbf0de591	-0.55428416
19	0xbf04e7e7	-0.51916355
20	0x3e831953	0.25605258
21	0x3e1761d9	0.1478342
22	0x3fb41490	1.4068775
23	0x3e58d23a	0.21173945
24	0x406fd64a	3.7474542
25	0x403d9638	2.9622936
26	0x3edf1691	0.43571904
27	0x3fcf71b7	1.6206578
28	0x40605f74	3.505826
29	0xc0200acf	-2.5006597
30	0x3e21d3d6	0.15803465
31	0xbe7af07b	-0.24505799
32	0x400c6cd5	2.1941426
33	0x40818932	4.0479975
34	0x40899161	4.2989964
35	0xbf5fdcc7	-0.87446254
36	0x3f79255a	0.9732262
37	0x408fc265	4.49248
38	0xbc8e8e5f	-0.017401872
39	0x3efdd774	0.4957844
40	0xbe98d7b5	-0.2985207
41	0xbdfbc18d	-0.12292776
42	0xbeac96ac	-0.33708704
43	0xbd2f10e2	-0.04274071
44	0xbd7532a5	-0.05986275
45	0x3d868b6b	0.065695606
46	0x3dddf778	0.108382165
47	0xbe121578	-0.14266002
48	0x40410a23	3.0162437
49	0xbfe89cfe	-1.817291
50	0x3f5cf5b4	0.86312413
51	0x4034fee6	2.8280578
52	0x3e8fc80c	0.2808231
53	0x3f00cd46	0.5031322
54	0xc000178c	-2.0014372
55	0x3fdef34b	1.7417997
56	0x3faf1dd8	1.3680983
57	0xbfdec767	-1.7404603
58	0x4006fb82	2.1091008
59	0xbfc73ceb	-1.5565466
60	0x4002e1d6	2.045034
61	0xbe070f19	-0.13189353
62	0xbecade38	-0.39622664
63	0x40320271	2.781399

l2.bias f4 [8]
0	0x3ef64a27	0.4810345
1	0x3fc9cffa	1.5766594
2	0x3f1a3fec	0.6025379
3	0x3f85341a	1.0406525
4	0x3fff8796	1.9963253
5	0xbda9e407	-0.08295446
6	0x3f60695f	0.87660784
7	0x3f371df2	0.7153007

l3.weight f4 [24, 8]
0	0xbf9f0566	-1.2423522
1	0xbf96017f	-1.1719207
2	0xbfebf5ff	-1.8434447
3	0x3ed6e874	0.41974223
4	0xbf7e05c0	-0.99227524
5	0xbd843853	-0.064560555
6	0x3de0ce80	0.10976887
7	0xbeef7114	-0.4676596
8	0x3df2c1b4	0.11853352
9	0xbec71a09	-0.3888705
10	0xbf998a70	-1.1995373
11	0x3e55e920	0.20889711
12	0xbf1810d6	-0.5940069
13	0xbe12900b	-0.1431276
14	0xbf7dae7c	-0.9909437
15	0xc08df1fc	-4.435789
16	0xbe6d7169	-0.23187794
17	0xbda0f126	-0.078584954
18	0xbfdf6a00	-1.7454224
19	0xbf94dbf6	-1.1629627
20	0xbe91333c	-0.283594
21	0xbc7290c9	-0.014805027
22	0xc030efad	-2.7646286
23	0xbee5d1f5	-0.44886747
24	0xbf533533	-0.8250305
25	0xc0593a3f	-3.39418
26	0xbe9ee7dc	-0.3103627
27	0x3ef31308	0.47475457
28	0xbac8ca5f	-0.00153191
29	0xbd1434e1	-0.03618324
30	0x3d3f9761	0.046775226
31	0xbfce2091	-1.6103688
32	0x3f332e04	0.6999209
33	0xc001b69e	-2.026771
34	0xbe7e2e2f	-0.24822305
35	0xbf8831bc	-1.0640178
36	0xbe02223a	-0.12708369
37	0xbe0fdb21	-0.14048435
38	0x3e969e10	0.29417467
39	0xc06e29db	-3.7213047
40	0xc0461348	-3.0949268
41	0xbebde830	-0.37091208
42	0x400746c2	2.1136937
43	0x3f5823d1	0.8442965
44	0xbfd34591	-1.6505605
45	0xbd37ea7a	-0.04490135
46	0xbef4b3fe	-0.47793573
47	0x3cf6f91a	0.030148078
48	0xbffbea87	-1.9680947
49	0x3f83fe05	1.0311896
50	0xbdaaa159	-0.08331556
51	0xbd8804bf	-0.0664153
52	0xc023ab1b	-2.5573184
53	0xbd9ee356	-0.07758205
54	0xbfbcafea	-1.4741185
55	0x3f3ed82d	0.7454861
56	0x3f2066f9	0.62657124
57	0xbff8a089	-1.9423991
58	0xbc9ed19b	-0.019387057
59	0xc04f0ee1	-3.2352831
60	0xbf6d17f4	-0.92614675
61	0xbdade37c	-0.08490655
62	0x3fcb6bb5	1.5892245
63	0x3e53f9e1	0.2070079
64	0xc0036ae4	-2.053399
65	0x3f27971d	0.65464956
66	0x3e4cd115	0.20001633
67	0xc0370cd0	-2.860157
68	0x3f7e742a	0.99396
69	0x3e917e58	0.28416705
70	0xbf6d2d56	-0.926473
71	0xc01043e0	-2.2541428
72	0xc0060982	-2.0943303
73	0xbf65ee11	-0.89816386
74	0x3f9db2f3	1.2320236
75	0x3f247e6b	0.642554
76	0x3e2e919c	0.17047733
77	0x3ea3063a	0.31840688
78	0xbf8edaed	-1.1160561
79	0xc046d09c	-3.1064825
80	0xbf5fe8a8	-0.8746438
81	0xbed1a714	-0.40947783
82	0xbf8bed68	-1.0931826
83	0xbf93a857	-1.1535748
84	0xbfc6cc87	-1.5531167
85	0x3c1bfcd2	0.009520726
86	0x3cef7d7a	0.029234637
87	0x3fabfabd	1.3435894
88	0x3e9730b1	0.29529336
89	0xbf4d40b9	-0.80176884
90	0x3c5d4a1f	0.013506441
91	0xc0742127	-3.8145235
92	0x3e09b42d	0.13447638
93	0x3e484512	0.19557598
94	0xbfa74552	-1.306803
95	0x3eb298f1	0.3488231
96	0xbf37c269	-0.7178102
97	0x3f7c15b5	0.9847062
98	0xbde57840	-0.112045765
99	0xbf591e0c	-0.8481147
100	0xbf38512d	-0.71998864
101	0xbe881b80	-0.2658348
102	0xbfb9e01a	-1.4521515
103	0xc05f96a8	-3.4935703
104	0xbf3d8b28	-0.7404046
105	0xc0219c23	-2.5251548
106	0xbdb2dcea	-0.08733542
107	0xbf3fc8ff	-0.7491607
108	0x3f911be8	1.1336641
109	0x3e1ffd8d	0.15624066
110	0xbfba3b05	-1.4549261
111	0xc0257aa4	-2.5856104
112	0xbd1d96c2	-0.038473852
113	0xbe9126b2	-0.28349835
114	0xbf1a996c	-0.60390353
115	0x3ecfb6cb	0.40569147
116	0xc0483dac	-3.1287642
117	0xbd8b902a	-0.068146065
118	0x3f5a53c9	0.85284096
119	0xbf81a9ab	-1.0129904
120	0xc00ae8e6	-2.170465
121	0x3f4c516a	0.7981173
122	0x3f52cf59	0.8234764
123	0xbd970bed	-0.073753215
124	0xbf29b4ce	-0.6629151
125	0x3e978deb	0.29600462
126	0xc06c201e	-3.6894603
127	0xbf784f6c	-0.9699619
128	0xbfdaac55	-1.7083842
129	0xbf97b629	-1.1852466
130	0xbfb0de81	-1.3817903
131	0xbf85cc9d	-1.0453068
132	0x3df66e85	0.12032799
133	0xbe7d7a9b	-0.24753802
134	0xbf40b457	-0.75275177
135	0x3f442a32	0.76626885
136	0xc095784b	-4.670934
137	0x3e919f50	0.28441858
138	0xc01a43fa	-2.410399
139	0x3d6c84e0	0.057743907
140	0x3e34076d	0.17580958
141	0xbebc1a91	-0.3673902
142	0xbff660f9	-1.9248344
143	0x3f4df4bd	0.80451566
144	0x3f0eaa99	0.5572906
145	0x3f1e40b2	0.6181747
146	0xbf367499	-0.71271664
147	0xbf95319f	-1.1655768
148	0xc035e160	-2.8418808
149	0xbe48d95f	-0.1961417
150	0xbf5af993	-0.8553707
151	0x3c0a1490	0.008427754
152	0x3f4f17eb	0.8089587
153	0x3e0302d2	0.12794045
154	0xbca3cb40	-0.019994378
155	0xc03043f0	-2.7541466
156	0xbf996e48	-1.198678
157	0xbdd01f16	-0.10162179
158	0x3ebbdb77	0.36690876
159	0xc01e7cc5	-2.4763653
160	0x3ed53073	0.41638526
161	0x3f589aae	0.8461102
162	0xbf469489	-0.77570397
163	0xc087ccf6	-4.2437696
164	0xbedd1e28	-0.4318707
165	0x3d4f71e4	0.050645724
166	0xc00427a1	-2.0649188
167	0xbefb7ff4	-0.49121058
168	0x3eb3353a	0.35001546
169	0xc07c0d2b	-3.9383037
170	0x3dd36b06	0.103231475
171	0xc07d9800	-3.9624023
172	0x3f87efc3	1.0620044
173	0xbea9f429	-0.33194092
174	0x3d19446d	0.03741877
175	0x3ed67410	0.41885424
176	0xbef4f961	-0.4784651
177	0xbdb0be4e	-0.08630048
178	0xbfcd9bfb	-1.6063226
179	0x3f01d623	0.5071737
180	0xbfae142c	-1.3599906
181	0x3d1d744f	0.038441
182	0xc014ca4e	-2.3248477
183	0xbf25b5bd	-0.64730436
184	0xbe81af71	-0.25329164
185	0xbf38e115	-0.7221845
186	0xbf9c3989	-1.2205058
187	0xbf886ace	-1.0657594
188	0xbf288ac3	-0.65836734
189	0xbda6dc1f	-0.081474535
190	0xbc3f43d7	-0.011673889
191	0xbf4de654	-0.8042958

l3.bias f4 [24]
0	0xbf6d6c34	-0.9274323
1	0xbd942f9c	-0.07235643
2	0xbdaf6f99	-0.085662074
3	0xbf375542	-0.7161447
4	0xbf34c3e2	-0.70611393
5	0xbf051b89	-0.5199514
6	0xbd623fd4	-0.055236652
7	0xbe7f97a3	-0.24960189
8	0x3f1c26cf	0.6099672
9	0x3f404261	0.75101286
10	0xbf667cb5	-0.9003404
11	0xbdcdfc0e	-0.10057841
12	0x3eabbe36	0.33543557
13	0xbdf08a50	-0.11745131
14	0xbe3da487	-0.18519793
15	0x3e8f1014	0.27941954
16	0xbea1a43c	-0.31570613
17	0x3e6efd77	0.23338877
18	0xbe9d1526	-0.30680197
19	0xbe9b27d8	-0.30303836
20	0xbeafd588	-0.343426
21	0x3e905380	0.28188705
22	0xbf03fa94	-0.51554227
23	0xbe239a70	-0.15976882
