data.pth (torch, 10111 bytes, 6 tensors)

l1.weight f4 [8, 159]
000000 68 c3 28 be ed 1f e9 bc b4 b2 41 3f 22 14 96 bc
       -0.16480792 -0.028457606 0.75663304 -0.018320147
000010 51 31 8d 3e 74 85 72 3f 63 d5 68 be ba c5 63 bf
       0.27576688 0.94734883 -0.2273765 -0.8897358
000020 5d 04 17 bf 4b 52 19 bf a0 bd 42 3e da db be 3e
       -0.5899103 -0.59891194 0.19017649 0.37277108
000030 60 f1 b1 3d 2c 9a 4d 3d e2 ce 5e bd 23 64 62 3f
       0.08688617 0.050195858 -0.054396518 0.88434047
000040 ea 17 ee bd 57 0f 28 3e 86 c2 8a be e8 65 bf 3c
       -0.11625655 0.16412102 -0.27101535 0.023364022
000050 bf a3 03 3f e2 47 fd 3e 84 1f 04 3f 00 6f 2e 3e
       0.5142173 0.49468905 0.5161059 0.1703453
000060 99 77 f1 be e6 cb 05 3e fc d4 9f 3e b2 a3 a1 be
       -0.47161558 0.13066062 0.31217182 -0.31570202
000070 81 90 19 3f 1d 8f dc 3e cc 93 3d 3f 51 78 09 bf
       0.5998612 0.43077937 0.74053645 -0.53699213
000080 3b d4 d5 3e bb 89 9c 3d 4c b0 a6 3d 17 77 b3 3e
       0.41763481 0.076434575 0.08139095 0.35051796
000090 c8 ea e5 3e 82 b8 4d 3f a9 cb ba 3e 54 49 f1 3e
       0.44905686 0.8035966 0.36483505 0.47126257
0000a0 92 3b dd be c1 50 81 3e d8 28 16 be 2c fa 22 3f
       -0.4320951 0.25256923 -0.14664018 0.6366298
0000b0 fe 1c d1 3e d7 e8 8e 3e 5e a0 1a be fa e6 66 3f
       0.40842432 0.27912018 -0.15100238 0.9019619
0000c0 5b a6 4e 3e 1f a3 1b 3f 8d be 83 3f 1a 76 38 3d
       0.20180647 0.6079578 1.0292526 0.045034505
0000d0 d6 64 5e be 17 4f 06 3e a7 c1 b5 3e 47 35 ec 3e
       -0.21718153 0.13116108 0.35499308 0.46134397
0000e0 da 40 8f 3f d4 23 10 3f 15 6b 3e 3e 68 db f8 3e
       1.1191666 0.5630467 0.18595536 0.48604894
0000f0 e5 7a d0 be 50 f5 ee 3e 12 b5 7b 3e b2 24 c3 3e
       -0.4071876 0.46671534 0.24580792 0.38113934
000100 8b 04 56 3e 53 17 a0 3e 7a 9e 3d 3f 58 49 ee 3d
       0.2090017 0.31267795 0.7406994 0.11635083
000110 d6 c5 91 3e 25 15 88 be 8b 72 73 be 3d 83 97 3e
       0.2847125 -0.26578632 -0.23774163 0.29592314
000120 65 c8 ef 3e c4 bc c6 3d fd e2 ac 3e ec fc f6 be
       0.46832576 0.09703973 0.33766928 -0.4823984
000130 c3 83 da bc 43 82 fd be 7b fa 61 be d5 b6 d7 3d
       -0.026674157 -0.49513444 -0.22068207 0.10532919
000140 eb 19 a4 3c 3b 26 84 be 73 20 9b 3d 4f c1 22 3e
       0.02003189 -0.25810418 0.075745486 0.15894054
000150 3e 0b 95 3e b8 da e8 3d f2 96 00 3f f0 57 eb 3f
       0.2911014 0.11369842 0.50230324 1.8386211
000160 e8 bd 16 3f 19 18 c6 be 75 45 b3 3e 83 e9 90 be
       0.58883524 -0.3869026 0.3501393 -0.28303155
000170 5a 5f ff 3e ec dd bb 3d 83 e9 df bd 2a 42 06 3f
       0.49877435 0.091731876 -0.10933211 0.5244471
000180 b4 12 de 3f 53 91 96 be a6 c6 93 be 8f 79 37 3e
       1.7349458 -0.2940775 -0.28862494 0.17917465
000190 c6 26 a8 3d e1 e0 82 3d b9 2b e5 3e 40 c7 47 3f
       0.082105204 0.063905485 0.4475992 0.78038406
0001a0 af d4 94 3e 3c fb 54 3f 75 a0 40 3e 0a 03 06 3f
       0.29068515 0.83195853 0.1881121 0.5234839
0001b0 3d 06 65 3e f2 68 96 3e 50 73 43 3f 6b eb 42 3f
       0.22365661 0.29376942 0.7634783 0.7614047
0001c0 42 d9 94 bd 13 24 c6 be fd 65 cd be 5b 9e 09 3f
       -0.07268001 -0.38699397 -0.40116873 0.53757256
0001d0 3f 5a 27 3e 23 04 57 3f c8 48 84 be 68 5c e1 be
       0.1634302 0.8399069 -0.25836778 -0.44015813
0001e0 8e eb 4e 3e 19 b2 f4 3e cd 1e 8f bd c9 63 88 3f
       0.20207044 0.47792128 -0.06988297 1.0655452
0001f0 dc c2 19 bf 7c 83 02 3e cf a9 d2 3e 88 52 bd 3e
       -0.60062957 0.1274547 0.4114518 0.3697703
000200 51 4f 7b 3f 6e b1 3f 3e 72 4e 12 3f a5 b8 8a be
       0.981679 0.18720028 0.5715095 -0.27093998
000210 2c f3 0c 3f 1e 99 3a be 37 82 12 3e 6b d3 a3 3e
       0.5505855 -0.18222472 0.14307486 0.31997237
000220 f3 f5 c5 3d 78 75 85 3f 0c 0f db 3f e7 a7 14 3f
       0.09666052 1.0426474 1.7113967 0.580687
000230 40 73 1b be b7 65 03 bf a4 ec da be c5 e0 15 be
       -0.15180683 -0.5132708 -0.42758667 -0.14636524
000240 87 8f ab 3d 57 8f 8a 3f c3 e8 db 3d f3 43 54 3f
       0.08376985 1.0824994 0.10737755 0.8291618
000250 e0 7b bd bd 92 98 f3 3c a8 88 50 3f 92 79 46 3f
       -0.09252143 0.029735837 0.8145852 0.7752925
000260 ea e1 93 3f f0 7e a3 3d 7b 5e 73 3f 12 6e 6a 3f
       1.1553319 0.07983196 0.9506604 0.91574204
000270 aa a7 f1 be 99 a3 10 3e 43 e8 ee be 8d f5 81 bd
       -0.4719823 0.14124908 -0.46661577 -0.06345663
000280 95 c0 6e 3e 23 28 6e 3d a1 71 c2 bd 85 58 95 3e
       0.23315652 0.058143746 -0.09494329 0.29169098
000290 1d 10 8a 3f 3c 43 f2 3c b5 39 b1 be ee c2 52 bf
       1.0786167 0.029573075 -0.3461434 -0.8232869
0002a0 74 65 52 bf fd 33 d7 3d 64 13 a4 3e 41 75 5d 3d
       -0.82186055 0.10507963 0.32046044 0.0540669
0002b0 ab 11 34 3e 39 78 10 be b6 7b 0b 3f 4d 3a 96 b7
       0.17584865 -0.14108361 0.5448564 -1.7908542e-05
0002c0 a3 68 3c be 23 12 2a bf de d4 c6 bc d9 1a 85 bd
       -0.1839929 -0.66433924 -0.024271425 -0.064992614
0002d0 02 1c 00 3f 8a bb 00 3f 56 41 50 3e e8 4f 87 3e
       0.50042737 0.5028616 0.20337424 0.2642815
0002e0 61 1b c1 bd 98 92 9e bd 53 40 1b bf a6 3e ed 3e
       -0.0942905 -0.07742804 -0.60645026 0.4633686
0002f0 fb 01 aa 3d a3 22 b6 3e c7 83 2c bf 0a 21 b3 3e
       0.08301159 0.355733 -0.67388576 0.34986144
000300 ea 6a dc 3d c2 5f 25 bd 05 f1 54 3e 0f af fa 3e
       0.1076258 -0.040374525 0.20795067 0.48961684
000310 43 25 dc 3e 42 52 9f bd 8e c3 e1 3e 2c f7 82 3f
       0.42997178 -0.07779361 0.4409451 1.0231681
000320 09 0c 90 3d 58 df 93 3e d0 b3 06 3f dd 6f cf 3e
       0.070335455 0.28881335 0.5261812 0.40515032
000330 01 9c 9c be 70 6f 55 bc 32 ad d8 be d8 76 07 be
       -0.30587772 -0.013027057 -0.42319638 -0.13228929
000340 3b af a9 3e f0 73 0f 3e 98 ec 88 bd 31 50 ae bd
       0.33141503 0.1400907 -0.06685752 -0.08511389
000350 e9 d5 68 be 60 06 65 be 7c 56 fe 3e 8b a1 8c 3f
       -0.2273785 -0.22365713 0.49675357 1.0986799
000360 ca bd bf 3e b9 39 99 3e 77 58 67 3e 0c 38 ac 3f
       0.37449485 0.2992685 0.2259234 1.3454604
000370 80 11 0a 3f a0 13 27 bd 09 a7 9a bc 61 24 77 be
       0.5393295 -0.0407902 -0.018878477 -0.24134971
000380 67 24 d9 bd f0 33 fd 3e 56 1a ab 3e 87 c1 f6 bd
       -0.10602646 0.49453688 0.3341853 -0.12048631
000390 0d 7e 2b bf 00 db 29 bf 4d a7 7f 3f cf 9b 02 be
       -0.66989213 -0.6634979 0.99864656 -0.12754749
0003a0 fa 52 7f 3e 15 78 fe be 5b 1d 25 bf 82 c4 7e be
       0.24933997 -0.4970099 -0.6449792 -0.2487965
0003b0 42 b5 25 bf 17 49 33 be 22 a0 ac 3d 45 62 6a 3e
       -0.647297 -0.1750835 0.084289804 0.2288905
0003c0 5f c4 2b bf 5f 6c 9e be e4 86 86 be 3d 82 91 be
       -0.67096514 -0.30942056 -0.26274788 -0.28419676
0003d0 8d 88 b4 3e 77 01 fc be 34 fe 6c bf 24 82 19 bf
       0.3526043 -0.49219868 -0.92575383 -0.59964204
0003e0 df da d8 be 82 09 27 3e 14 ff 2a bf ef ff 9b 3e
       -0.42354485 0.1631222 -0.6679547 0.304687
0003f0 a4 c9 b6 3e 68 92 d3 bc 66 77 41 3e 66 79 14 3f
       0.35700715 -0.025826648 0.18893203 0.5799774

l1.bias f4 [8]
000000 99 bd 0d 40 9d d7 a6 3f a1 73 12 40 83 5a 45 40
       2.2146971 1.303455 2.2883074 3.0836494
000010 98 10 1f 40 e9 aa f2 3f 27 ec d2 3f fb 1c 10 40
       2.4853878 1.8958408 1.6478318 2.2517688

l2.weight f4 [8, 8]
000000 a0 26 5d bf f2 86 8d 3f 65 eb 21 40 e9 1d 1a 40
       -0.8638706 1.1056807 2.5299923 2.4080756
000010 8b 29 fa 3f 1b be cf bd dd cf b6 3f e4 69 e9 3e
       1.9543928 -0.101436816 1.4282185 0.455886
000020 cb ea 5c 3f 1e 07 49 bf 2b 9b a8 3e 60 57 fb 3f
       0.86295766 -0.78526485 0.32930884 1.963604
000030 61 20 27 40 04 ed 40 40 15 62 5f bf 90 82 28 40
       2.6113513 3.0144663 -0.87259036 2.632969
000040 bd da 17 40 c5 67 3b 40 40 08 55 3e 76 5e 29 40
       2.3727257 2.9282086 0.20803928 2.6463904
000050 ff 2e c8 3f b6 3e a1 3f c6 22 0c 3f bd d7 83 40
       1.5639342 1.2597263 0.5474056 4.1200852
000060 c9 42 ce 3f 1a 89 48 bf 84 eb 9f 3e c4 31 d4 3f
       1.6114131 -0.783342 0.31234372 1.6577687
000070 0f 8a aa bd 30 88 2a 40 81 74 63 40 a2 9c 1e 40
       -0.08327114 2.6645622 3.5539858 2.47831
000080 01 4d 10 40 2a 0c b7 3f db f5 15 40 07 3f 1a 40
       2.2547 1.4300587 2.3431308 2.410097
000090 26 28 ea be 35 b0 0e 40 11 27 32 bf c1 fa dc be
       -0.45733756 2.2295048 -0.6959086 -0.4316006
0000a0 a3 1a 2b 40 20 9f d5 be 80 a8 19 40 cc 3a 56 3d
       2.6735008 -0.41722965 2.4009094 0.052302167
0000b0 20 be 5b 40 a9 3e 53 40 89 44 16 40 db 10 8d be
       3.4334793 3.3006995 2.347933 -0.27551922
0000c0 c2 bd 6f 40 b2 45 3d 40 39 1c 84 3f 35 8d cd 3e
       3.745957 2.9573789 1.0321113 0.40146795
0000d0 90 d2 5c 40 cc c7 da 3d 61 b5 ee 3e 75 8d ca 3f
       3.4503517 0.106826395 0.46622756 1.5824419
0000e0 3b ae 99 3f 53 41 f2 bd 1e bf 17 40 49 3e 39 40
       1.2006296 -0.11828866 2.3710399 2.8944266
0000f0 8a ef 32 3f 58 05 7a bf 2b f2 d0 3f 79 5b 96 3f
       0.6989676 -0.97664404 1.6323904 1.1746665

l2.bias f4 [8]
000000 16 24 c1 3f 86 2c 77 3f 07 32 47 3f e8 09 47 3f
       1.5089138 0.9655231 0.7781071 0.7774949
000010 52 c2 e8 3e b7 8b 2e 3f e9 c7 05 3f f6 87 10 3f
       0.45460755 0.6818194 0.52258164 0.5645746

l3.weight f4 [17, 8]
000000 61 f1 f7 bf d5 52 42 be bd 82 28 3f 73 09 08 c0
       -1.9370538 -0.1897691 0.6582449 -2.1255767
000010 99 d9 28 bf da 79 2c c0 ed 4e 45 3f ef 1d 1c c0
       -0.6595703 -2.6949372 0.77073556 -2.439327
000020 b3 9e 0b 3d 4f cb 5a c0 a5 28 73 bf ab e2 20 c0
       0.034086894 -3.418659 -0.94983894 -2.5138347
000030 ce ec ae 3e 4a 9d 7c bf 62 ac a3 3d 95 f7 84 3c
       0.34165043 -0.98677504 0.07991864 0.016231338
000040 64 bc 56 3f 88 89 18 c0 11 6e 2e c0 87 a4 23 be
       0.8388121 -2.3833942 -2.725468 -0.15980731
000050 2c b8 87 be bb 9c 93 be fa 74 38 c0 3c 87 a1 3f
       -0.265077 -0.28830513 -2.8821397 1.2619395
000060 74 42 c2 bd 18 da 14 3d bf 2e 7a c0 bc 22 75 3e
       -0.09485331 0.036340803 -3.9091032 0.23939031
000070 fc c6 16 c0 d1 fd 32 3f 50 fb 1c bf 6b b1 ae bf
       -2.355895 0.69918543 -0.6132097 -1.3647894
000080 97 a4 4d bf 1b 3b 10 bf 99 b0 50 bf d9 6a 5b c0
       -0.8032927 -0.5634019 -0.81519467 -3.4283965
000090 80 19 cf 3e 11 0b 50 3e cc 40 1b 3d 60 91 36 c0
       0.40449142 0.20316721 0.037903592 -2.852623
0000a0 c0 4d 51 c0 5c 60 0e 3f aa 81 41 be 90 77 96 bf
       -3.2703705 0.5561578 -0.18897119 -1.1755238
0000b0 ff 56 13 c0 eb cb 36 be 1a 5e 06 3e 19 a8 33 c0
       -2.3021848 -0.17851226 0.13121834 -2.8071349
0000c0 83 02 50 3c f7 5a 50 c0 f2 2c cd 3e 50 2a a9 3d
       0.012695911 -3.255552 0.40073353 0.082600236
0000d0 f1 ac a3 bf a7 54 2b c0 af 35 52 3e 22 3e de bf
       -1.2787153 -2.6770418 0.20528291 -1.7362711
0000e0 ae e7 27 bf b3 11 a7 3e 62 c9 00 bf 82 06 68 3f
       -0.6558789 0.3263069 -0.50307286 0.9063493
0000f0 14 e9 e6 bf be 96 6b bf f3 13 6a c0 7d 8d b7 bf
       -1.803988 -0.9202689 -3.6574676 -1.4340054
000100 c9 44 93 be 07 86 c8 be bf fa 95 bf 22 ad 17 bf
       -0.28763416 -0.39164755 -1.1717147 -0.59248555
000110 f4 41 4c c0 86 9a 35 bf 24 5d 57 bf 69 30 01 bf
       -3.1915255 -0.7093891 -0.84126496 -0.50464493
000120 eb b0 42 c0 ce 1a 93 3d d3 70 8c bf 12 52 41 3f
       -3.0420482 0.07182847 -1.0971931 0.75515854
000130 b0 de 17 c0 e2 f7 81 3e b2 0b 24 bf 63 9e 31 c0
       -2.3729668 0.25384432 -0.64080346 -2.7752922
000140 01 41 2f c0 9a f7 35 3e 0f 4d bb be 54 53 f6 be
       -2.7383425 0.17770234 -0.3658223 -0.4811045
000150 18 e1 ae 3e d4 f4 f6 bf 77 ad a1 bf 1d 7e b5 bf
       0.34156108 -1.9293466 -1.2631062 -1.4179112
000160 4a be 0e bf 39 72 1e c0 a1 5c 3e c0 b4 89 2a bf
       -0.5575911 -2.4757216 -2.9744036 -0.6661637
000170 b1 c2 87 3e f5 e7 9d 3e 01 48 43 bf cc 94 d0 bb
       0.26515725 0.30841032 -0.76281744 -0.006365394
000180 cf 2d a1 3e c6 ec 9d bf 67 f5 10 bf 78 b1 15 bf
       0.31480262 -1.2337883 -0.56624454 -0.5847392
000190 e4 66 7f 3d 41 1f 2c c0 38 3c 17 c0 ff a1 8f 3e
       0.062353984 -2.6894076 -2.3630505 0.2805328
0001a0 37 33 b0 3e 82 64 63 c0 b6 7d 14 c0 34 61 63 be
       0.34414074 -3.5530095 -2.3201728 -0.22205049
0001b0 5d 50 4e c0 74 08 b9 3e 8b 17 d1 3e 93 ad a9 ba
       -3.223655 0.36139262 0.40838274 -0.0012945406
0001c0 c9 ad 0b c0 56 23 37 c0 d3 91 41 bf 73 fe 56 3e
       -2.182482 -2.8615317 -0.75613135 0.20995502
0001d0 4a 19 52 bd c6 e4 19 be 3d b3 29 be 37 91 0c c0
       -0.05129365 -0.15028676 -0.1657228 -2.1963632
0001e0 36 a9 10 3f 54 d7 eb be bd 56 07 be da 01 5c c0
       0.56508195 -0.4606272 -0.13216682 -3.437613
0001f0 dc 6b fc 3d fb 07 47 c0 04 c9 a1 be d2 fc 03 bf
       0.1232526 -3.109862 -0.31598675 -0.5155765
000200 cc c4 c5 3d 76 d4 e8 3e 30 02 35 c0 b0 b9 5b bf
       0.09656677 0.45474595 -2.8282585 -0.8583021
000210 9e bc da 3e f6 64 20 3d f7 16 29 c0 8f b9 94 bf
       0.42722028 0.039158784 -2.6420267 -1.1619128

l3.bias f4 [17]
000000 76 68 df 3e 1e 9c bb be da 05 70 3e ff 8c 43 bc
       0.43634385 -0.36642545 0.23439732 -0.011935472
000010 b0 b6 33 be 79 c4 86 3d a9 46 b3 3e 13 6e 20 bb
       -0.17550159 0.06580443 0.35014847 -0.0024479672
000020 c3 97 67 3e c6 43 87 be e4 8e 72 be 9d 81 03 bf
       0.22616486 -0.26418895 -0.23687321 -0.5136965
000030 74 49 92 bd 92 8c 8c 3d 7b 80 a6 bd 3c b3 4d 3e
       -0.07142916 0.06862749 -0.081299745 0.20087904
000040 83 7b 66 3e
       0.22508053
